…
I0206 01:57:55.421134  4885 solver.cpp:87] Creating training net from net file: models/Level_Alex_net/train_val1.prototxt
I0206 01:57:55.421340  4885 net.cpp:294] The NetState phase (0) differed from the phase (1) specified by a rule in layer accuracy
I0206 01:57:55.421427  4885 net.cpp:51] Initializing net from parameters: 
name: "Lenet"
state {
  phase: TRAIN
  level: 0
  stage: ""
}
layer {
  name: "data"
  type: "Data"
  top: "data"
  top: "label"
  transform_param {
    scale: 0.00390625
  }
  data_param {
    source: "examples/Level_Net/Level_train_lmdb"
    batch_size: 64
    backend: LMDB
  }
}
layer {
  name: "conv1"
  type: "Convolution"
  bottom: "data"
  top: "conv1"
  param {
    lr_mult: 1
  }
  param {
    lr_mult: 2
  }
  convolution_param {
    num_output: 20
    kernel_size: 5
    stride: 1
    weight_filler {
      type: "xavier"
    }
    bias_filler {
      type: "constant"
    }
  }
}
layer {
  name: "relu1"
  type: "ReLU"
  bottom: "conv1"
  top: "conv1"
}
layer {
  name: "pool1"
  type: "Pooling"
  bottom: "conv1"
  top: "pool1"
  pooling_param {
    pool: MAX
    kernel_size: 2
    stride: 2
  }
}
layer {
  name: "conv2"
  type: "Convolution"
  bottom: "pool1"
  top: "conv2"
  param {
    lr_mult: 1
  }
  param {
    lr_mult: 2
  }
  convolution_param {
    num_output: 50
    kernel_size: 5
    stride: 1
    weight_filler {
      type: "xavier"
    }
    bias_filler {
      type: "constant"
    }
  }
}
layer {
  name: "relu2"
  type: "ReLU"
  bottom: "conv2"
  top: "conv2"
}
layer {
  name: "pool2"
  type: "Pooling"
  bottom: "conv2"
  top: "pool2"
  pooling_param {
    pool: MAX
    kernel_size: 2
    stride: 2
  }
}
layer {
  name: "ip1"
  type: "InnerProduct"
  bottom: "pool2"
  top: "ip1"
  param {
    lr_mult: 1
  }
  param {
    lr_mult: 2
  }
  inner_product_param {
    num_output: 500
    weight_filler {
      type: "xavier"
    }
    bias_filler {
      type: "constant"
    }
  }
}
layer {
  name: "ip2"
  type: "InnerProduct"
  bottom: "ip1"
  top: "ip2"
  param {
    lr_mult: 1
  }
  param {
    lr_mult: 2
  }
  inner_product_param {
    num_output: 2
    weight_filler {
      type: "xavier"
    }
    bias_filler {
      type: "constant"
    }
  }
}
layer {
  name: "drop2"
  type: "Dropout"
  bottom: "ip2"
  top: "ip2"
  dropout_param {
    dropout_ratio: 0.4
  }
}
layer {
  name: "loss"
  type: "Softmax"
  bottom: "ip2"
  top: "loss"
}
I0206 01:57:55.421504  4885 layer_factory.hpp:77] Creating layer data
I0206 01:57:55.421619  4885 db_lmdb.cpp:35] Opened lmdb examples/Level_Net/Level_train_lmdb
I0206 01:57:55.421634  4885 net.cpp:84] Creating Layer data
I0206 01:57:55.421654  4885 net.cpp:380] data -> data
I0206 01:57:55.421681  4885 net.cpp:380] data -> label
I0206 01:57:55.422330  4885 data_layer.cpp:45] output data size: 64,1,227,227
I0206 01:57:55.438884  4885 net.cpp:122] Setting up data
I0206 01:57:55.438899  4885 net.cpp:129] Top shape: 64 1 227 227 (3297856)
I0206 01:57:55.438901  4885 net.cpp:129] Top shape: 64 (64)
I0206 01:57:55.438904  4885 net.cpp:137] Memory required for data: 13191680
I0206 01:57:55.438930  4885 layer_factory.hpp:77] Creating layer conv1
I0206 01:57:55.438959  4885 net.cpp:84] Creating Layer conv1
I0206 01:57:55.438963  4885 net.cpp:406] conv1 <- data
I0206 01:57:55.438971  4885 net.cpp:380] conv1 -> conv1
I0206 01:57:55.845487  4885 net.cpp:122] Setting up conv1
I0206 01:57:55.845505  4885 net.cpp:129] Top shape: 64 20 223 223 (63653120)
I0206 01:57:55.845507  4885 net.cpp:137] Memory required for data: 267804160
I0206 01:57:55.845536  4885 layer_factory.hpp:77] Creating layer relu1
I0206 01:57:55.845598  4885 net.cpp:84] Creating Layer relu1
I0206 01:57:55.845602  4885 net.cpp:406] relu1 <- conv1
I0206 01:57:55.845607  4885 net.cpp:367] relu1 -> conv1 (in-place)
I0206 01:57:55.845793  4885 net.cpp:122] Setting up relu1
I0206 01:57:55.845798  4885 net.cpp:129] Top shape: 64 20 223 223 (63653120)
I0206 01:57:55.845800  4885 net.cpp:137] Memory required for data: 522416640
I0206 01:57:55.845801  4885 layer_factory.hpp:77] Creating layer pool1
I0206 01:57:55.845805  4885 net.cpp:84] Creating Layer pool1
I0206 01:57:55.845806  4885 net.cpp:406] pool1 <- conv1
I0206 01:57:55.845809  4885 net.cpp:380] pool1 -> pool1
I0206 01:57:55.845888  4885 net.cpp:122] Setting up pool1
I0206 01:57:55.845906  4885 net.cpp:129] Top shape: 64 20 112 112 (16056320)
I0206 01:57:55.845907  4885 net.cpp:137] Memory required for data: 586641920
I0206 01:57:55.845909  4885 layer_factory.hpp:77] Creating layer conv2
I0206 01:57:55.845930  4885 net.cpp:84] Creating Layer conv2
I0206 01:57:55.845932  4885 net.cpp:406] conv2 <- pool1
I0206 01:57:55.845935  4885 net.cpp:380] conv2 -> conv2
I0206 01:57:55.847285  4885 net.cpp:122] Setting up conv2
I0206 01:57:55.847293  4885 net.cpp:129] Top shape: 64 50 108 108 (37324800)
I0206 01:57:55.847295  4885 net.cpp:137] Memory required for data: 735941120
I0206 01:57:55.847301  4885 layer_factory.hpp:77] Creating layer relu2
I0206 01:57:55.847318  4885 net.cpp:84] Creating Layer relu2
I0206 01:57:55.847321  4885 net.cpp:406] relu2 <- conv2
I0206 01:57:55.847323  4885 net.cpp:367] relu2 -> conv2 (in-place)
I0206 01:57:55.847532  4885 net.cpp:122] Setting up relu2
I0206 01:57:55.847538  4885 net.cpp:129] Top shape: 64 50 108 108 (37324800)
I0206 01:57:55.847540  4885 net.cpp:137] Memory required for data: 885240320
I0206 01:57:55.847542  4885 layer_factory.hpp:77] Creating layer pool2
I0206 01:57:55.847544  4885 net.cpp:84] Creating Layer pool2
I0206 01:57:55.847561  4885 net.cpp:406] pool2 <- conv2
I0206 01:57:55.847563  4885 net.cpp:380] pool2 -> pool2
I0206 01:57:55.847618  4885 net.cpp:122] Setting up pool2
I0206 01:57:55.847622  4885 net.cpp:129] Top shape: 64 50 54 54 (9331200)
I0206 01:57:55.847625  4885 net.cpp:137] Memory required for data: 922565120
I0206 01:57:55.847625  4885 layer_factory.hpp:77] Creating layer ip1
I0206 01:57:55.847630  4885 net.cpp:84] Creating Layer ip1
I0206 01:57:55.847631  4885 net.cpp:406] ip1 <- pool2
I0206 01:57:55.847635  4885 net.cpp:380] ip1 -> ip1
I0206 01:57:56.133452  4885 net.cpp:122] Setting up ip1
I0206 01:57:56.133467  4885 net.cpp:129] Top shape: 64 500 (32000)
I0206 01:57:56.133469  4885 net.cpp:137] Memory required for data: 922693120
I0206 01:57:56.133493  4885 layer_factory.hpp:77] Creating layer ip2
I0206 01:57:56.133502  4885 net.cpp:84] Creating Layer ip2
I0206 01:57:56.133504  4885 net.cpp:406] ip2 <- ip1
I0206 01:57:56.133508  4885 net.cpp:380] ip2 -> ip2
I0206 01:57:56.133648  4885 net.cpp:122] Setting up ip2
I0206 01:57:56.133652  4885 net.cpp:129] Top shape: 64 2 (128)
I0206 01:57:56.133654  4885 net.cpp:137] Memory required for data: 922693632
I0206 01:57:56.133656  4885 layer_factory.hpp:77] Creating layer drop2
I0206 01:57:56.133661  4885 net.cpp:84] Creating Layer drop2
I0206 01:57:56.133662  4885 net.cpp:406] drop2 <- ip2
I0206 01:57:56.133679  4885 net.cpp:367] drop2 -> ip2 (in-place)
I0206 01:57:56.133697  4885 net.cpp:122] Setting up drop2
I0206 01:57:56.133700  4885 net.cpp:129] Top shape: 64 2 (128)
I0206 01:57:56.133702  4885 net.cpp:137] Memory required for data: 922694144
I0206 01:57:56.133703  4885 layer_factory.hpp:77] Creating layer loss
I0206 01:57:56.133724  4885 net.cpp:84] Creating Layer loss
I0206 01:57:56.133726  4885 net.cpp:406] loss <- ip2
I0206 01:57:56.133730  4885 net.cpp:380] loss -> loss
I0206 01:57:56.134132  4885 net.cpp:122] Setting up loss
I0206 01:57:56.134140  4885 net.cpp:129] Top shape: 64 2 (128)
I0206 01:57:56.134141  4885 net.cpp:137] Memory required for data: 922694656
I0206 01:57:56.134143  4885 net.cpp:200] loss does not need backward computation.
I0206 01:57:56.134165  4885 net.cpp:200] drop2 does not need backward computation.
I0206 01:57:56.134192  4885 net.cpp:200] ip2 does not need backward computation.
I0206 01:57:56.134194  4885 net.cpp:200] ip1 does not need backward computation.
…
I0206 01:57:56.134212  4885 net.cpp:242] This network produces output loss
I0206 01:57:56.134217  4885 net.cpp:255] Network initialization done.
I0206 01:57:56.134335  4885 solver.cpp:172] Creating test net (#0) specified by net file: models/Level_Alex_net/train_val1.prototxt
I0206 01:57:56.134413  4885 net.cpp:51] Initializing net from parameters: 
name: "Lenet"
state {
  phase: TEST
}
layer {
  name: "data"
  type: "Data"
  top: "data"
  top: "label"
  transform_param {
    scale: 0.00390625
  }
  data_param {
    source: "examples/Level_Net/Level_train_lmdb"
    batch_size: 64
    backend: LMDB
  }
}
layer {
  name: "conv1"
  type: "Convolution"
  bottom: "data"
  top: "conv1"
  param {
    lr_mult: 1
  }
  param {
    lr_mult: 2
  }
  convolution_param {
    num_output: 20
    kernel_size: 5
    stride: 1
    weight_filler {
      type: "xavier"
    }
    bias_filler {
      type: "constant"
    }
  }
}
layer {
  name: "relu1"
  type: "ReLU"
  bottom: "conv1"
  top: "conv1"
}
layer {
  name: "pool1"
  type: "Pooling"
  bottom: "conv1"
  top: "pool1"
  pooling_param {
    pool: MAX
    kernel_size: 2
    stride: 2
  }
}
layer {
  name: "conv2"
  type: "Convolution"
  bottom: "pool1"
  top: "conv2"
  param {
    lr_mult: 1
  }
  param {
    lr_mult: 2
  }
  convolution_param {
    num_output: 50
    kernel_size: 5
    stride: 1
    weight_filler {
      type: "xavier"
    }
    bias_filler {
      type: "constant"
    }
  }
}
layer {
  name: "relu2"
  type: "ReLU"
  bottom: "conv2"
  top: "conv2"
}
layer {
  name: "pool2"
  type: "Pooling"
  bottom: "conv2"
  top: "pool2"
  pooling_param {
    pool: MAX
    kernel_size: 2
    stride: 2
  }
}
layer {
  name: "ip1"
  type: "InnerProduct"
  bottom: "pool2"
  top: "ip1"
  param {
    lr_mult: 1
  }
  param {
    lr_mult: 2
  }
  inner_product_param {
    num_output: 500
    weight_filler {
      type: "xavier"
    }
    bias_filler {
      type: "constant"
    }
  }
}
layer {
  name: "ip2"
  type: "InnerProduct"
  bottom: "ip1"
  top: "ip2"
  param {
    lr_mult: 1
  }
  param {
    lr_mult: 2
  }
  inner_product_param {
    num_output: 2
    weight_filler {
      type: "xavier"
    }
    bias_filler {
      type: "constant"
    }
  }
}
layer {
  name: "drop2"
  type: "Dropout"
  bottom: "ip2"
  top: "ip2"
  dropout_param {
    dropout_ratio: 0.4
  }
}
layer {
  name: "accuracy"
  type: "Accuracy"
  bottom: "ip2"
  bottom: "label"
  top: "accuracy"
  include {
    phase: TEST
  }
}
layer {
  name: "loss"
  type: "Softmax"
  bottom: "ip2"
  top: "loss"
}
I0206 01:57:56.134445  4885 layer_factory.hpp:77] Creating layer data
I0206 01:57:56.134481  4885 db_lmdb.cpp:35] Opened lmdb examples/Level_Net/Level_train_lmdb
I0206 01:57:56.134490  4885 net.cpp:84] Creating Layer data
I0206 01:57:56.134493  4885 net.cpp:380] data -> data
I0206 01:57:56.134498  4885 net.cpp:380] data -> label
I0206 01:57:56.134572  4885 data_layer.cpp:45] output data size: 64,1,227,227
I0206 01:57:56.151082  4885 net.cpp:122] Setting up data
I0206 01:57:56.151111  4885 net.cpp:129] Top shape: 64 1 227 227 (3297856)
I0206 01:57:56.151129  4885 net.cpp:129] Top shape: 64 (64)
I0206 01:57:56.151131  4885 net.cpp:137] Memory required for data: 13191680
I0206 01:57:56.151135  4885 layer_factory.hpp:77] Creating layer conv1
I0206 01:57:56.151162  4885 net.cpp:84] Creating Layer conv1
I0206 01:57:56.151165  4885 net.cpp:406] conv1 <- data
I0206 01:57:56.151170  4885 net.cpp:380] conv1 -> conv1
I0206 01:57:56.153249  4885 net.cpp:122] Setting up conv1
I0206 01:57:56.153256  4885 net.cpp:129] Top shape: 64 20 223 223 (63653120)
I0206 01:57:56.153273  4885 net.cpp:137] Memory required for data: 267804160
I0206 01:57:56.153280  4885 layer_factory.hpp:77] Creating layer relu1
I0206 01:57:56.153285  4885 net.cpp:84] Creating Layer relu1
I0206 01:57:56.153287  4885 net.cpp:406] relu1 <- conv1
I0206 01:57:56.153290  4885 net.cpp:367] relu1 -> conv1 (in-place)
I0206 01:57:56.153445  4885 net.cpp:122] Setting up relu1
I0206 01:57:56.153450  4885 net.cpp:129] Top shape: 64 20 223 223 (63653120)
I0206 01:57:56.153467  4885 net.cpp:137] Memory required for data: 522416640
I0206 01:57:56.153470  4885 layer_factory.hpp:77] Creating layer pool1
I0206 01:57:56.153473  4885 net.cpp:84] Creating Layer pool1
I0206 01:57:56.153475  4885 net.cpp:406] pool1 <- conv1
I0206 01:57:56.153477  4885 net.cpp:380] pool1 -> pool1
I0206 01:57:56.153504  4885 net.cpp:122] Setting up pool1
I0206 01:57:56.153508  4885 net.cpp:129] Top shape: 64 20 112 112 (16056320)
I0206 01:57:56.153509  4885 net.cpp:137] Memory required for data: 586641920
I0206 01:57:56.153512  4885 layer_factory.hpp:77] Creating layer conv2
I0206 01:57:56.153517  4885 net.cpp:84] Creating Layer conv2
I0206 01:57:56.153518  4885 net.cpp:406] conv2 <- pool1
I0206 01:57:56.153522  4885 net.cpp:380] conv2 -> conv2
I0206 01:57:56.154362  4885 net.cpp:122] Setting up conv2
I0206 01:57:56.154371  4885 net.cpp:129] Top shape: 64 50 108 108 (37324800)
I0206 01:57:56.154372  4885 net.cpp:137] Memory required for data: 735941120
I0206 01:57:56.154392  4885 layer_factory.hpp:77] Creating layer relu2
I0206 01:57:56.154397  4885 net.cpp:84] Creating Layer relu2
I0206 01:57:56.154398  4885 net.cpp:406] relu2 <- conv2
I0206 01:57:56.154402  4885 net.cpp:367] relu2 -> conv2 (in-place)
I0206 01:57:56.154582  4885 net.cpp:122] Setting up relu2
I0206 01:57:56.154587  4885 net.cpp:129] Top shape: 64 50 108 108 (37324800)
I0206 01:57:56.154588  4885 net.cpp:137] Memory required for data: 885240320
I0206 01:57:56.154590  4885 layer_factory.hpp:77] Creating layer pool2
I0206 01:57:56.154594  4885 net.cpp:84] Creating Layer pool2
I0206 01:57:56.154611  4885 net.cpp:406] pool2 <- conv2
I0206 01:57:56.154613  4885 net.cpp:380] pool2 -> pool2
I0206 01:57:56.154657  4885 net.cpp:122] Setting up pool2
I0206 01:57:56.154661  4885 net.cpp:129] Top shape: 64 50 54 54 (9331200)
I0206 01:57:56.154664  4885 net.cpp:137] Memory required for data: 922565120
I0206 01:57:56.154665  4885 layer_factory.hpp:77] Creating layer ip1
I0206 01:57:56.154670  4885 net.cpp:84] Creating Layer ip1
I0206 01:57:56.154671  4885 net.cpp:406] ip1 <- pool2
I0206 01:57:56.154675  4885 net.cpp:380] ip1 -> ip1
I0206 01:57:56.449477  4885 net.cpp:122] Setting up ip1
I0206 01:57:56.449492  4885 net.cpp:129] Top shape: 64 500 (32000)
I0206 01:57:56.449494  4885 net.cpp:137] Memory required for data: 922693120
I0206 01:57:56.449519  4885 layer_factory.hpp:77] Creating layer ip2
I0206 01:57:56.449527  4885 net.cpp:84] Creating Layer ip2
I0206 01:57:56.449529  4885 net.cpp:406] ip2 <- ip1
I0206 01:57:56.449550  4885 net.cpp:380] ip2 -> ip2
I0206 01:57:56.449740  4885 net.cpp:122] Setting up ip2
I0206 01:57:56.449744  4885 net.cpp:129] Top shape: 64 2 (128)
I0206 01:57:56.449745  4885 net.cpp:137] Memory required for data: 922693632
I0206 01:57:56.449748  4885 layer_factory.hpp:77] Creating layer drop2
I0206 01:57:56.449767  4885 net.cpp:84] Creating Layer drop2
I0206 01:57:56.449769  4885 net.cpp:406] drop2 <- ip2
I0206 01:57:56.449774  4885 net.cpp:367] drop2 -> ip2 (in-place)
I0206 01:57:56.449815  4885 net.cpp:122] Setting up drop2
I0206 01:57:56.449818  4885 net.cpp:129] Top shape: 64 2 (128)
I0206 01:57:56.449820  4885 net.cpp:137] Memory required for data: 922694144
I0206 01:57:56.449841  4885 layer_factory.hpp:77] Creating layer ip2_drop2_0_split
I0206 01:57:56.449868  4885 net.cpp:84] Creating Layer ip2_drop2_0_split
I0206 01:57:56.449885  4885 net.cpp:406] ip2_drop2_0_split <- ip2
I0206 01:57:56.449888  4885 net.cpp:380] ip2_drop2_0_split -> ip2_drop2_0_split_0
I0206 01:57:56.449895  4885 net.cpp:380] ip2_drop2_0_split -> ip2_drop2_0_split_1
I0206 01:57:56.449941  4885 net.cpp:122] Setting up ip2_drop2_0_split
I0206 01:57:56.449945  4885 net.cpp:129] Top shape: 64 2 (128)
I0206 01:57:56.449947  4885 net.cpp:129] Top shape: 64 2 (128)
I0206 01:57:56.449966  4885 net.cpp:137] Memory required for data: 922695168
I0206 01:57:56.449967  4885 layer_factory.hpp:77] Creating layer accuracy
I0206 01:57:56.449972  4885 net.cpp:84] Creating Layer accuracy
I0206 01:57:56.449975  4885 net.cpp:406] accuracy <- ip2_drop2_0_split_0
I0206 01:57:56.449976  4885 net.cpp:406] accuracy <- label
I0206 01:57:56.449980  4885 net.cpp:380] accuracy -> accuracy
I0206 01:57:56.449985  4885 net.cpp:122] Setting up accuracy
I0206 01:57:56.449986  4885 net.cpp:129] Top shape: (1)
I0206 01:57:56.449987  4885 net.cpp:137] Memory required for data: 922695172
I0206 01:57:56.449990  4885 layer_factory.hpp:77] Creating layer loss
I0206 01:57:56.449992  4885 net.cpp:84] Creating Layer loss
I0206 01:57:56.449995  4885 net.cpp:406] loss <- ip2_drop2_0_split_1
I0206 01:57:56.449997  4885 net.cpp:380] loss -> loss
I0206 01:57:56.450438  4885 net.cpp:122] Setting up loss
I0206 01:57:56.450444  4885 net.cpp:129] Top shape: 64 2 (128)
I0206 01:57:56.450445  4885 net.cpp:137] Memory required for data: 922695684
I0206 01:57:56.450448  4885 net.cpp:200] loss does not need backward computation.
I0206 01:57:56.450449  4885 net.cpp:200] accuracy does not need backward computation.
I0206 01:57:56.450451  4885 net.cpp:200] ip2_drop2_0_split does not need backward computation.
I0206 01:57:56.450453  4885 net.cpp:200] drop2 does not need backward computation.
…
